…
Epoch 15/15
10500/10500 [==============================] - 489s 47ms/step - loss: 0.0146 - accuracy: 0.9771 - val_loss: 0.0429 - val_accuracy: 0.9419
Total trainable base-model layers: 169
1488/1488 [==============================] - 56s 37ms/step - loss: 0.0392 - accuracy: 0.9491
Frozen model: test loss, test acc: [0.039223313331604004, 0.9490927457809448]
Model: "sequential"
_________________________________________________________________
 Layer (type)                Output Shape              Param #
=================================================================
 efficientnetv2-s (Functiona  (None, 1280)             20331360
 l)

 base_dropout (Dropout)      (None, 1280)              0

 compression_bottleneck (Den  (None, 512)              655872
 se)

 top_dropout (Dropout)       (None, 512)               0

 classification (Dense)      (None, 14)                7182

=================================================================
Total params: 20,994,414
Trainable params: 18,882,198
Non-trainable params: 2,112,216
_________________________________________________________________
100%|█████████████████████████████████████████████████████████████████████████████████████████████████████████| 50/50 [00:09<00:00,  5.45it/s]

>>>> Stage: 1/3, target_shape: 300, dropout: 0, magnitude: 5, batch_size: 4
…
